✅ Wandb initialized: project=watermark-anything, name=output_finetune
making attention of type 'vanilla' with 64 in_channels
Working with z of shape (1, 4, 32, 32) = 4096 dimensions.
making attention of type 'vanilla' with 64 in_channels
VAEEmbedder(
  (encoder): VAEEncoder(
    (conv_in): Conv2d(3, 32, kernel_size=(3, 3), stride=(1, 1), padding=(1, 1))
    (down): ModuleList(
      (0-2): 3 x Module(
        (block): ModuleList(
          (0-1): 2 x ResnetBlock(
            (norm1): ConditionalNorm(
              (norm): GroupNorm(32, 32, eps=1e-06, affine=False)
              (embed): Linear(in_features=128, out_features=64, bias=True)
            )
            (conv1): Conv2d(32, 32, kernel_size=(3, 3), stride=(1, 1), padding=(1, 1))
            (norm2): ConditionalNorm(
              (norm): GroupNorm(32, 32, eps=1e-06, affine=False)
              (embed): Linear(in_features=128, out_features=64, bias=True)
            )
            (dropout): Dropout(p=0.0, inplace=False)
            (conv2): Conv2d(32, 32, kernel_size=(3, 3), stride=(1, 1), padding=(1, 1))
          )
          (2-3): 2 x ResnetBlock(
            (norm1): ConditionalNorm(
              (norm): GroupNorm(32, 32, eps=1e-06, affine=False)
            )
            (conv1): Conv2d(32, 32, kernel_size=(3, 3), stride=(1, 1), padding=(1, 1))
            (norm2): ConditionalNorm(
              (norm): GroupNorm(32, 32, eps=1e-06, affine=False)
            )
            (dropout): Dropout(p=0.0, inplace=False)
            (conv2): Conv2d(32, 32, kernel_size=(3, 3), stride=(1, 1), padding=(1, 1))
          )
        )
        (attn): ModuleList()
        (downsample): Downsample(
          (conv): Conv2d(32, 32, kernel_size=(3, 3), stride=(2, 2))
        )
      )
      (3): Module(
        (block): ModuleList(
          (0): ResnetBlock(
            (norm1): ConditionalNorm(
              (norm): GroupNorm(32, 32, eps=1e-06, affine=False)
              (embed): Linear(in_features=128, out_features=64, bias=True)
            )
            (conv1): Conv2d(32, 64, kernel_size=(3, 3), stride=(1, 1), padding=(1, 1))
            (norm2): ConditionalNorm(
              (norm): GroupNorm(32, 64, eps=1e-06, affine=False)
              (embed): Linear(in_features=128, out_features=128, bias=True)
            )
            (dropout): Dropout(p=0.0, inplace=False)
            (conv2): Conv2d(64, 64, kernel_size=(3, 3), stride=(1, 1), padding=(1, 1))
            (nin_shortcut): Conv2d(32, 64, kernel_size=(1, 1), stride=(1, 1))
          )
          (1): ResnetBlock(
            (norm1): ConditionalNorm(
              (norm): GroupNorm(32, 64, eps=1e-06, affine=False)
              (embed): Linear(in_features=128, out_features=128, bias=True)
            )
            (conv1): Conv2d(64, 64, kernel_size=(3, 3), stride=(1, 1), padding=(1, 1))
            (norm2): ConditionalNorm(
              (norm): GroupNorm(32, 64, eps=1e-06, affine=False)
              (embed): Linear(in_features=128, out_features=128, bias=True)
            )
            (dropout): Dropout(p=0.0, inplace=False)
            (conv2): Conv2d(64, 64, kernel_size=(3, 3), stride=(1, 1), padding=(1, 1))
          )
          (2-3): 2 x ResnetBlock(
            (norm1): ConditionalNorm(
              (norm): GroupNorm(32, 64, eps=1e-06, affine=False)
            )
            (conv1): Conv2d(64, 64, kernel_size=(3, 3), stride=(1, 1), padding=(1, 1))
            (norm2): ConditionalNorm(
              (norm): GroupNorm(32, 64, eps=1e-06, affine=False)
            )
            (dropout): Dropout(p=0.0, inplace=False)
            (conv2): Conv2d(64, 64, kernel_size=(3, 3), stride=(1, 1), padding=(1, 1))
          )
        )
        (attn): ModuleList()
      )
    )
    (mid): Module(
      (block_1): ResnetBlock(
        (norm1): ConditionalNorm(
          (norm): GroupNorm(32, 64, eps=1e-06, affine=False)
          (embed): Linear(in_features=128, out_features=128, bias=True)
        )
        (conv1): Conv2d(64, 64, kernel_size=(3, 3), stride=(1, 1), padding=(1, 1))
        (norm2): ConditionalNorm(
          (norm): GroupNorm(32, 64, eps=1e-06, affine=False)
          (embed): Linear(in_features=128, out_features=128, bias=True)
        )
        (dropout): Dropout(p=0.0, inplace=False)
        (conv2): Conv2d(64, 64, kernel_size=(3, 3), stride=(1, 1), padding=(1, 1))
      )
      (attn_1): AttnBlock(
        (norm): GroupNorm(32, 64, eps=1e-06, affine=True)
        (q): Conv2d(64, 64, kernel_size=(1, 1), stride=(1, 1))
        (k): Conv2d(64, 64, kernel_size=(1, 1), stride=(1, 1))
        (v): Conv2d(64, 64, kernel_size=(1, 1), stride=(1, 1))
        (proj_out): Conv2d(64, 64, kernel_size=(1, 1), stride=(1, 1))
      )
      (block_2): ResnetBlock(
        (norm1): ConditionalNorm(
          (norm): GroupNorm(32, 64, eps=1e-06, affine=False)
          (embed): Linear(in_features=128, out_features=128, bias=True)
        )
        (conv1): Conv2d(64, 64, kernel_size=(3, 3), stride=(1, 1), padding=(1, 1))
        (norm2): ConditionalNorm(
          (norm): GroupNorm(32, 64, eps=1e-06, affine=False)
          (embed): Linear(in_features=128, out_features=128, bias=True)
        )
        (dropout): Dropout(p=0.0, inplace=False)
        (conv2): Conv2d(64, 64, kernel_size=(3, 3), stride=(1, 1), padding=(1, 1))
      )
    )
    (norm_out): GroupNorm(32, 64, eps=1e-06, affine=True)
    (conv_out): Conv2d(64, 4, kernel_size=(3, 3), stride=(1, 1), padding=(1, 1))
  )
  (decoder): VAEDecoder(
    (conv_in): Conv2d(4, 64, kernel_size=(3, 3), stride=(1, 1), padding=(1, 1))
    (mid): Module(
      (block_1): ResnetBlock(
        (norm1): ConditionalNorm(
          (norm): GroupNorm(32, 64, eps=1e-06, affine=False)
          (embed): Linear(in_features=128, out_features=128, bias=True)
        )
        (conv1): Conv2d(64, 64, kernel_size=(3, 3), stride=(1, 1), padding=(1, 1))
        (norm2): ConditionalNorm(
          (norm): GroupNorm(32, 64, eps=1e-06, affine=False)
          (embed): Linear(in_features=128, out_features=128, bias=True)
        )
        (dropout): Dropout(p=0.0, inplace=False)
        (conv2): Conv2d(64, 64, kernel_size=(3, 3), stride=(1, 1), padding=(1, 1))
      )
      (attn_1): AttnBlock(
        (norm): GroupNorm(32, 64, eps=1e-06, affine=True)
        (q): Conv2d(64, 64, kernel_size=(1, 1), stride=(1, 1))
        (k): Conv2d(64, 64, kernel_size=(1, 1), stride=(1, 1))
        (v): Conv2d(64, 64, kernel_size=(1, 1), stride=(1, 1))
        (proj_out): Conv2d(64, 64, kernel_size=(1, 1), stride=(1, 1))
      )
      (block_2): ResnetBlock(
        (norm1): ConditionalNorm(
          (norm): GroupNorm(32, 64, eps=1e-06, affine=False)
          (embed): Linear(in_features=128, out_features=128, bias=True)
        )
        (conv1): Conv2d(64, 64, kernel_size=(3, 3), stride=(1, 1), padding=(1, 1))
        (norm2): ConditionalNorm(
          (norm): GroupNorm(32, 64, eps=1e-06, affine=False)
          (embed): Linear(in_features=128, out_features=128, bias=True)
        )
        (dropout): Dropout(p=0.0, inplace=False)
        (conv2): Conv2d(64, 64, kernel_size=(3, 3), stride=(1, 1), padding=(1, 1))
      )
    )
    (up): ModuleList(
      (0): Module(
        (block): ModuleList(
          (0-2): 3 x ResnetBlock(
            (norm1): ConditionalNorm(
              (norm): GroupNorm(32, 32, eps=1e-06, affine=False)
              (embed): Linear(in_features=128, out_features=64, bias=True)
            )
            (conv1): Conv2d(32, 32, kernel_size=(3, 3), stride=(1, 1), padding=(1, 1))
            (norm2): ConditionalNorm(
              (norm): GroupNorm(32, 32, eps=1e-06, affine=False)
              (embed): Linear(in_features=128, out_features=64, bias=True)
            )
            (dropout): Dropout(p=0.0, inplace=False)
            (conv2): Conv2d(32, 32, kernel_size=(3, 3), stride=(1, 1), padding=(1, 1))
          )
        )
        (attn): ModuleList()
      )
      (1): Module(
        (block): ModuleList(
          (0-2): 3 x ResnetBlock(
            (norm1): ConditionalNorm(
              (norm): GroupNorm(32, 32, eps=1e-06, affine=False)
              (embed): Linear(in_features=128, out_features=64, bias=True)
            )
            (conv1): Conv2d(32, 32, kernel_size=(3, 3), stride=(1, 1), padding=(1, 1))
            (norm2): ConditionalNorm(
              (norm): GroupNorm(32, 32, eps=1e-06, affine=False)
              (embed): Linear(in_features=128, out_features=64, bias=True)
            )
            (dropout): Dropout(p=0.0, inplace=False)
            (conv2): Conv2d(32, 32, kernel_size=(3, 3), stride=(1, 1), padding=(1, 1))
          )
        )
        (attn): ModuleList()
        (upsample): Upsample(
          (conv): Conv2d(32, 32, kernel_size=(3, 3), stride=(1, 1), padding=(1, 1))
        )
      )
      (2): Module(
        (block): ModuleList(
          (0): ResnetBlock(
            (norm1): ConditionalNorm(
              (norm): GroupNorm(32, 64, eps=1e-06, affine=False)
              (embed): Linear(in_features=128, out_features=128, bias=True)
            )
            (conv1): Conv2d(64, 32, kernel_size=(3, 3), stride=(1, 1), padding=(1, 1))
            (norm2): ConditionalNorm(
              (norm): GroupNorm(32, 32, eps=1e-06, affine=False)
              (embed): Linear(in_features=128, out_features=64, bias=True)
            )
            (dropout): Dropout(p=0.0, inplace=False)
            (conv2): Conv2d(32, 32, kernel_size=(3, 3), stride=(1, 1), padding=(1, 1))
            (nin_shortcut): Conv2d(64, 32, kernel_size=(1, 1), stride=(1, 1))
          )
          (1-2): 2 x ResnetBlock(
            (norm1): ConditionalNorm(
              (norm): GroupNorm(32, 32, eps=1e-06, affine=False)
              (embed): Linear(in_features=128, out_features=64, bias=True)
            )
            (conv1): Conv2d(32, 32, kernel_size=(3, 3), stride=(1, 1), padding=(1, 1))
            (norm2): ConditionalNorm(
              (norm): GroupNorm(32, 32, eps=1e-06, affine=False)
              (embed): Linear(in_features=128, out_features=64, bias=True)
            )
            (dropout): Dropout(p=0.0, inplace=False)
            (conv2): Conv2d(32, 32, kernel_size=(3, 3), stride=(1, 1), padding=(1, 1))
          )
        )
        (attn): ModuleList()
        (upsample): Upsample(
          (conv): Conv2d(32, 32, kernel_size=(3, 3), stride=(1, 1), padding=(1, 1))
        )
      )
      (3): Module(
        (block): ModuleList(
          (0-2): 3 x ResnetBlock(
            (norm1): ConditionalNorm(
              (norm): GroupNorm(32, 64, eps=1e-06, affine=False)
              (embed): Linear(in_features=128, out_features=128, bias=True)
            )
            (conv1): Conv2d(64, 64, kernel_size=(3, 3), stride=(1, 1), padding=(1, 1))
            (norm2): ConditionalNorm(
              (norm): GroupNorm(32, 64, eps=1e-06, affine=False)
              (embed): Linear(in_features=128, out_features=128, bias=True)
            )
            (dropout): Dropout(p=0.0, inplace=False)
            (conv2): Conv2d(64, 64, kernel_size=(3, 3), stride=(1, 1), padding=(1, 1))
          )
        )
        (attn): ModuleList()
        (upsample): Upsample(
          (conv): Conv2d(64, 64, kernel_size=(3, 3), stride=(1, 1), padding=(1, 1))
        )
      )
    )
    (norm_out): GroupNorm(32, 32, eps=1e-06, affine=True)
    (conv_out): Conv2d(32, 3, kernel_size=(3, 3), stride=(1, 1), padding=(1, 1))
  )
  (msg_processor): MsgProcessor(
    (msg_embeddings): Embedding(64, 64)
  )
  (msg_mlp): Sequential(
    (0): Linear(in_features=32, out_features=64, bias=True)
    (1): SiLU()
    (2): Linear(in_features=64, out_features=128, bias=True)
  )
)
embedder: 1.9M parameters
augmenter: Augmenter(augs=['Identity', 'JPEG', 'Resize', 'Crop', 'Rotate', 'HorizontalFlip', 'Perspective', 'GaussianBlur', 'MedianFilter', 'Brightness', 'Contrast', 'Saturation', 'Hue', 'CropResizePad'], probs=tensor([0.0667, 0.0667, 0.0667, 0.0667, 0.0667, 0.0667, 0.0667, 0.0667, 0.0667,
        0.0667, 0.0667, 0.0667, 0.0667, 0.1333]))
…
